backend/training/models/simple_text_classifier.pth (torch, 836161 bytes, 11 tensors)

embedding.weight f4 [116, 64]
00000000: 0000 0000 0000 0000 0000 0000 0000 0000
00000010: 0000 0000 0000 0000 0000 0000 0000 0000
00000020: 0000 0000 0000 0000 0000 0000 0000 0000
00000030: 0000 0000 0000 0000 0000 0000 0000 0000
00000040: 0000 0000 0000 0000 0000 0000 0000 0000
00000050: 0000 0000 0000 0000 0000 0000 0000 0000
00000060: 0000 0000 0000 0000 0000 0000 0000 0000
00000070: 0000 0000 0000 0000 0000 0000 0000 0000
00000080: 0000 0000 0000 0000 0000 0000 0000 0000
00000090: 0000 0000 0000 0000 0000 0000 0000 0000
000000a0: 0000 0000 0000 0000 0000 0000 0000 0000
000000b0: 0000 0000 0000 0000 0000 0000 0000 0000
000000c0: 0000 0000 0000 0000 0000 0000 0000 0000
000000d0: 0000 0000 0000 0000 0000 0000 0000 0000
000000e0: 0000 0000 0000 0000 0000 0000 0000 0000
000000f0: 0000 0000 0000 0000 0000 0000 0000 0000
00000100: 491d b93f 8bff 2ebf c95b 193f eabe cebf
00000110: a2fd 5fbf 2d3f d0bf b8ef e63e 2aea ddbe
00000120: a9ef 22be baf9 14be bc74 933f 28b7 663f
00000130: 71f1 853e 321b babe 4a31 a13d 408b 09be
00000140: 10e4 3ebf a5d9 71bf e098 683c 2721 c4be
00000150: 7894 27bf 7b96 9a3e e8f3 14c0 eec1 e2be
00000160: 6cdc b9bf ce8b 4f3f d808 653f 0bd7 aebf
00000170: 658d b83f 1532 1dbf c8a1 85be 2fb4 bdbe
00000180: 4da3 fcbf ec92 0d3f b5a0 673f fc5e 573f
00000190: ac17 84bd f241 1ebf 4c81 9abf 43b4 acbf
000001a0: 1f58 d2be 152a 7e3f 3a4d 6e3e 25e0 06bd
000001b0: bcb8 263d 2876 e0bf 136d f2bf fb30 903f
000001c0: 7abb abbf ad1f cebe ed05 19bf 4e79 e53e
000001d0: 910d e43f 4eee e73e 3b51 603f f7a5 693f
000001e0: c357 c33f 8650 fabe 17db 4dbe 46c0 c1bd
000001f0: f575 9b3e 7d61 1ebe a697 763f f13c be3d
00000200: 54ad 923f d2fc 35bf dc3d 8cbf a539 70bd
00000210: cee2 3a3f 7d71 85bf bb43 86bf d47e 96bf
00000220: d663 e5bd 5fb0 bbbf fd9f bbbe 6519 673f
00000230: 4a94 aebe 2274 fe3e 0f23 db3e 9272 ecbf
00000240: 9767 60bf 6d47 aabf 6d03 04c0 7eea 9fbd
00000250: d76b 933e e24f d33f 5dee 85bd 5dbe 123f
00000260: 7886 b03f c276 46be ac50 323f 13b5 26bf
00000270: 08f5 a7bd 1f43 973d e144 58be 41ea 7a3f
00000280: 7e16 45bf 60c0 e0bf c8e7 abbe bdf2 d23f
00000290: 5b1f f03d 4a01 a83e 1002 033f 1466 15bf
000002a0: ba75 433f 2855 ea3e f617 683f 17a7 f83e
000002b0: 0e3b 963e 3273 3e3f 6bf7 e5bf 33d4 7e3e
000002c0: 1ff3 0fbe f566 34bd 5a57 79bf aa80 be3e
000002d0: d622 13bf 09d6 bf3d 781a b63f de6d fb3f
000002e0: 8536 333f de15 273f 5c80 963f 14c7 afbf
000002f0: 497c c03f f428 343f 64f9 6dbf 3117 c13f
00000300: ae28 89bf 9d40 9a3d 648c 5dbf e36b a9bf
00000310: 9711 633d ea71 34bf 7f45 823f 0d92 c3be
00000320: c8fe 19be 1d05 913f 482c 543f 5899 3d3f
00000330: 6f63 fe3d c971 813c 0c3b 813e 31e4 a9bd
00000340: a3b1 3e3f 3e9c 51bf ed51 2c3f e455 27bf
00000350: 1c61 a23f aa53 71c0 19b9 5a3f 3f47 5cbf
00000360: e4ed a4bf 0ae6 8bbe 124b 58bf 5718 f1bf
00000370: aab8 3e3f 8a13 2dbf c813 c43e 7068 a03f
00000380: 9b0a 9cbf 906c 33be 808e 90bf d1da 26bf
00000390: 1a07 413f b782 01bf f16a ef3e 00a9 32bf
000003a0: 0bf2 80bf 7d2e 0bbf ecea 603f 5efd 11bf
000003b0: a222 17c0 473c 193f 020e 52bf c589 8dbf
000003c0: cd4e 7d3f 7ccd 9a3e 1215 e93d fdf7 1ebf
000003d0: 0471 fa3e ac74 ed3e ef6e 623f e0e3 d4bf
000003e0: 07cb 473f 6b6d 8ebc 7323 2dbf b7b1 f2be
000003f0: 0f38 cdbe f27d 0ac0 b844 9dbf 937e dc3d
0.0 0.0 0.0 0.0 0.0 0.0 0.0 0.0
0.0 0.0 0.0 0.0 0.0 0.0 0.0 0.0
0.0 0.0 0.0 0.0 0.0 0.0 0.0 0.0
0.0 0.0 0.0 0.0 0.0 0.0 0.0 0.0
0.0 0.0 0.0 0.0 0.0 0.0 0.0 0.0
0.0 0.0 0.0 0.0 0.0 0.0 0.0 0.0
0.0 0.0 0.0 0.0 0.0 0.0 0.0 0.0
0.0 0.0 0.0 0.0 0.0 0.0 0.0 0.0
1.4462062 -0.6835868 0.5990568 -1.6152012 -0.8749639 -1.626928 0.45104766 -0.43342716
-0.15911736 -0.14548388 1.152 0.90123224 0.26160768 -0.36348873 0.07870729 -0.13432026
-0.74566746 -0.94472724 0.0141966045 -0.38306543 -0.6546092 0.30192932 -2.3273869 -0.44288582
-1.4520392 0.810727 0.8946662 -1.3659376 1.441815 -0.61404544 -0.26099992 -0.37051532
-1.9737335 0.5530231 0.90479594 0.8412931 -0.064498276 -0.61819375 -1.2070708 -1.3492512
-0.41082856 0.9928296 0.23271647 -0.032928605 0.04070352 -1.7536058 -1.8939537 1.1264948
-1.3416588 -0.40258542 -0.5977467 0.4481911 1.781664 0.45299 0.8762395 0.9126887
1.5261158 -0.4888956 -0.20103107 -0.094605014 0.30363432 -0.15466876 0.9632515 0.092889674
1.1459146 -0.710889 -1.0956378 -0.058648724 0.73002326 -1.0425259 -1.048942 -1.1757455
-0.11200683 -1.4663199 -0.366455 0.90273124 -0.3409751 0.49697977 0.42800185 -1.8472464
-0.87658066 -1.3303047 -2.062709 -0.07808398 0.28793213 1.6508753 -0.06539605 0.5732172
1.3791037 -0.1938124 0.69654346 -0.6512005 -0.08201033 0.07385849 -0.21120025 0.98013693
-0.76987445 -1.7558708 -0.33575273 1.6480328 0.117247306 0.32813483 0.5117502 -0.58358884
0.7635151 0.45768094 0.9066156 0.4856498 0.2934193 0.74394524 -1.7966131 0.24885635
-0.14057587 -0.0440435 -0.9739891 0.37207538 -0.5747503 0.09366996 1.4226828 1.9642904
0.70005065 0.6526774 1.1757922 -1.3732629 1.5037929 0.7037499 -0.92958665 1.5085202
-1.071554 0.07531855 -0.86542344 -1.323605 0.055436697 -0.7048632 1.0177459 -0.38197365
-0.15038598 1.1329685 0.8288007 0.7406211 0.12421309 0.015801327 0.25240362 -0.08295477
0.744898 -0.8187903 0.6731251 -0.65365434 1.2685885 -3.7707314 0.85438687 -0.8604621
-1.2885098 -0.27323943 -0.8448955 -1.8835553 0.74500525 -0.6760794 0.38296342 1.2531872
-1.2190737 -0.17521882 -1.1293488 -0.6517764 0.7540146 -0.5059008 0.46761277 -0.69789124
-1.0073866 -0.5436781 0.8785846 -0.5702723 -2.3614888 0.598576 -0.82052624 -1.1057669
0.98948365 0.30234897 0.11380972 -0.6209715 0.4891435 0.46378076 0.8845052 -1.6632042
0.7804417 -0.017386159 -0.67632216 -0.4740121 -0.40081832 -2.163937 -1.2286596 0.107663296

lstm.weight_ih_l0 f4 [512, 64]
00000000: 6080 91bb 8038 483c dd99 04bd 6084 8abd
00000010: 40db 8f3c 40fd 953b c0dc 823c ab86 9dbd
00000020: 40f6 d43a 7d32 9d3d 8021 df3c ef0f 8c3d
00000030: 6a5c 7ebd 4909 38bd cd49 3abd 5e9c 9cbd
00000040: 00ee 30bd e259 aebd e0b2 493b 42a5 4a3d
00000050: ea69 54bd 33f4 813d f43e 9dbc 0cbd aabc
00000060: ce07 143d 30b3 9d3b 63e6 a53d 4abb f9bc
00000070: ba32 3b3d 68e3 4bbc 20df 96bb ba29 6f3d
00000080: bdab 9cbd d0a7 f73b 4803 b7bc 49e0 843d
00000090: d881 133d 1872 153c 8a10 2f3d b3c1 b23d
000000a0: f070 0c3c 15e7 4ebd 747b d0bc 60fa 8bbd
000000b0: bc60 77bd 1b28 0dbd 3e36 443d 9e23 acbd
000000c0: 1c9c 063d 601f 85bb d14a 3abd 1249 563d
000000d0: 00fa f83a fad9 213d 4088 8b3a 9b80 74bd
000000e0: eb8f a73d 5c38 853c 64ef 90bd c436 cd3c
000000f0: e243 11bd a728 983d 1eb1 8bbd 4327 16bd
00000100: 8014 d93b 0e9d d9bc 4168 a8bd 007f 17bc
00000110: c0a3 0cbc 7022 a33b 34c1 f2bc 9f3f 8d3d
00000120: 70dd 0f3d 38ab 643c b0d7 ae3b f484 8b3c
00000130: 5730 a23d 8e49 93bd 9c89 b0bd 11f2 863d
00000140: 4863 e43c 660a 3dbd 60ab 5a3b 29cc 75bd
00000150: d224 03bd 7001 de3b d655 773d f6c3 193d
00000160: 64cc a5bc d01e 113c 6e3d 533d c6fb 3c3d
00000170: 6ecd e9bc b8bb b13c 831e 973d 4698 9cbd
00000180: df2b 46bd a4e5 8e3c 7ed9 783d 725a 86bd
00000190: 70e7 f5bb 427b 543d c618 50bd c0bb 583c
000001a0: ef18 aa3d b538 80bd 78a4 753c 3ee8 3f3d
000001b0: 0024 fbba 2c1e c83c c60a 353d c937 69bd
000001c0: 8a42 773d 8832 60bd cafd 413d 7c08 8c3c
000001d0: 73f3 25bd 1c25 42bd 6670 443d 58ef 033c
000001e0: 85e0 923d 0dd1 19bd 0010 f5ba a03b d03b
000001f0: a0f4 c03c 49ea a4bd 9ba5 803d f829 d1bc
00000200: 115b a03d 4863 a2bd f727 9f3d 83ca 98bd
00000210: 92a6 793d 7480 acbd bc55 d63c b6e1 b1bd
00000220: be31 753d fc91 943c e275 83bd 6c7c cebc
00000230: 392e 9a3d 6efe aebd f8e8 2ebc 064b 1c3d
00000240: 003a fe39 ab41 0cbd 7dd3 a33d 6a85 333d
00000250: e0bd ffbb 7795 b23d ff53 903d c058 10bc
00000260: c054 b03c 0571 9e3d 8f35 abbd 3925 00bd
00000270: 4865 51bc b81f d1bc 60db 02bb ed76 ac3d
00000280: 312a 3abd 0e98 a0bd 80c0 84bc f65b 04bd
00000290: 3022 f93c e031 8dbd 20aa 73bc 8a87 a7bd
000002a0: 9ce8 fa3c 323a 203d 3dce 10bd 7061 81bb
000002b0: 0028 36b9 8ccd f4bc 7fc8 0bbd c0c3 413b
000002c0: b0d5 9abd 889a 95bd 70c5 e03b c14a 853d
000002d0: aaa4 0d3d 27b2 ac3d 8953 b33d d02c dc3c
000002e0: 03e6 ae3d 0411 cb3c 4482 b5bc 9a77 263d
000002f0: b0da d7bb 5f9d 77bd d44b b6bc bec6 2c3d
00000300: 2b3d 843d d0e6 80bc 0065 1abb 2888 7cbd
00000310: cf84 5abd 637b 91bd e042 fa3c 9f4e 8d3d
00000320: be1a 6d3d 1e07 693d a567 a73d 409d 3abc
00000330: dc77 e13c ae1a 513d 62eb 2d3d 41b3 b13d
00000340: fe21 a7bd e2a1 063d e844 9cbd 1186 903d
00000350: e01b d53b 13b2 963d 8446 90bd bad8 4a3d
00000360: 0115 b03d 4350 993d 7d22 823d 26db 1f3d
00000370: 5d94 aebd 5c9e 043d 3221 34bd 8070 613a
00000380: c463 8bbc a0a3 7dbc 59a1 9e3d 0256 183d
00000390: 5091 883b 7422 b5bc 0553 8fbd ee90 503d
000003a0: 80a8 b8ba dc87 a63c 94f5 89bd 2086 b63c
000003b0: 8714 a83d 48aa 8b3c beb3 5b3d 7861 88bd
000003c0: 48d5 ce3c 2dda 52bd 001c 0a3c 6a6e 503d
000003d0: 12b2 5fbd 90ef 8abd ab2a afbd 60d6 5fbd
000003e0: 765d 493d 1a84 d6bc 2036 6ebc 1111 953d
000003f0: 2713 a93d 26fe 1d3d 5231 493d 4a5a 89bd
-0.0044403523 0.012220502 -0.032373298 -0.0676353 0.017560601 0.004577309 0.015974402 -0.076917015
0.0016247705 0.076756455 0.027237654 0.068389766 -0.06209985 -0.04493073 -0.04548054 -0.07647012
-0.043195724 -0.085132375 0.0030776784 0.04947401 -0.05185882 0.063454054 -0.019195057 -0.020842098
0.036140256 0.0048126206 0.081005834 -0.030484814 0.045702673 -0.012444355 -0.0046042353 0.058389403
-0.07649944 0.0075578466 -0.022340432 0.064880915 0.0360125 0.00912144 0.042740382 0.087283514
0.008571848 -0.050513346 -0.025449492 -0.068348646 -0.060394987 -0.034462076 0.047903292 -0.08405231
0.03286372 -0.004062578 -0.045481507 0.05231578 0.0018995404 0.03951452 0.0010645464 -0.05969296
0.08181747 0.016262226 -0.0707691 0.025050528 -0.03546513 0.07429629 -0.06820892 -0.036658537
0.0066247582 -0.026564147 -0.0822301 -0.009246588 -0.008583963 0.0049784705 -0.029633142 0.068969004
0.03512329 0.013956837 0.0053357705 0.01703117 0.07919376 -0.07191764 -0.08619997 0.06589139
0.027879372 -0.046152495 0.0033366308 -0.060009155 -0.032017536 0.0067750737 0.060384594 0.0375404
-0.020239063 0.008857444 0.051572256 0.046138547 -0.02854034 0.021695957 0.073788665 -0.07646231
-0.048381682 0.017443486 0.06075429 -0.0656022 -0.007504396 0.05187536 -0.050804876 0.013228357
0.08305537 -0.06260816 0.014992826 0.046852343 -0.0019160509 0.02442845 0.044199727 -0.056937966
0.06036619 -0.05473569 0.047361173 0.01709389 -0.040515374 -0.04739867 0.047958754 0.008052669
0.0717173 -0.037552882 -0.0018696785 0.006354764 0.023554146 -0.08052499 0.06281587 -0.025532708
0.078298695 -0.07929093 0.077712946 -0.07460501 0.06094987 -0.08422938 0.026163928 -0.08685629
0.05986189 0.018136017 -0.06418969 -0.025205813 0.075283475 -0.08544622 -0.010675661 0.038157485
0.0004848987 -0.034242313 0.079993226 0.043828405 -0.0078046173 0.087199144 0.07047271 -0.008810222
0.021524787 0.077364005 -0.08359825 -0.0312855 -0.012780495 -0.02552782 -0.0019967183 0.08421121
-0.045450393 -0.07841502 -0.016205072 -0.032314263 0.03041181 -0.068942785 -0.014872104 -0.08180149
0.030628495 0.039118 -0.035352934 -0.003948383 -0.00017371774 -0.029883169 -0.034126755 0.002956614
-0.07560289 -0.07304865 0.006859474 0.06508399 0.034580864 0.08432417 0.087561674 0.026876837
0.08539965 0.024788387 -0.022156842 0.040641405 -0.006587349 -0.060452815 -0.022252955 0.042181723
0.06456979 -0.01573506 -0.0023558736 -0.061653286 -0.053349312 -0.07103612 0.030549467 0.068997614
0.05788683 0.056891553 0.081740655 -0.01139003 0.027522974 0.051050834 0.042460807 0.08676768
-0.0816078 0.032869227 -0.0763033 0.07056821 0.006503567 0.07358184 -0.070447 0.049523093
0.08597756 0.07486012 0.06354234 0.039027356 -0.08524392 0.032377586 -0.04397697 0.00085998327
-0.017015345 -0.015480906 0.077456184 0.0371914 0.004167713 -0.022111155 -0.069982566 0.050919466
-0.0014088303 0.020328455 -0.067362934 0.022280753 0.0820704 0.01704897 0.053638212 -0.06659216
0.025248185 -0.0514776 0.008429527 0.05088655 -0.05461318 -0.06783974 -0.0855306 -0.054647803
0.049161397 -0.026186038 -0.014539272 0.07278646 0.08255606 0.038572453 0.0491193 -0.067066744

lstm.weight_hh_l0 f4 [512, 128]
00000000: ee81 ed3c 0c33 b03d fdb4 e53b 7afd 623d
00000010: e207 5abd 8180 08bd 01c2 a13b 3bb8 a0bd
00000020: c175 4cbd 8354 8bbd ba90 8e3d 1bf4 2e3d
00000030: 8c28 9f3d c1dd a3bd 4e21 213d b9a7 c83c
00000040: d1c2 413d f677 cebc 5f8c 843d 95f2 5f3c
00000050: e557 ab3d 637f d2bc f2e5 2abc 688f ba3d
00000060: 7dfd ae3c 659a 14bd 289f 6ebd a40a 9e3d
00000070: 251c 0abc cb06 2abd 3adc 0a3d 2c8f 813d
00000080: 6819 6bbd 0248 9bbd d873 8f3d a0d5 663d
00000090: 3426 123c a166 a43c 1419 1a3d 490f 46bd
000000a0: 3441 94bc 8d10 b93d 2f25 aa3d 3297 90bd
000000b0: 538f 993c 7f3d 2fbd 9332 d6bc b178 aabd
000000c0: ea87 1cbd 5ebb 24bc 16f9 8ebd 0283 ab3d
000000d0: c9f4 88bd bd09 8dbd 4d91 20bc 9204 cdbb
000000e0: bb6f 75bd 93a1 c63c a140 0cbc 8e3e 35bd
000000f0: b462 293c c9a5 32bd 8d3d 8bba 063a a93d
00000100: 6372 dabc 0d78 46bd b8fb 4fbd 0286 3f3d
00000110: ddc2 a63d e12e 643d d641 a03d 4a99 873d
00000120: 1260 2ebd c90c 803d 4c1d 9c3d c4fa b7bc
00000130: b2ce 37bd 8880 6c3d 1cf3 f43c 4026 943d
00000140: f157 513d a111 5c3d 50e3 613b 8818 e73c
00000150: 9983 9fbc e45b a53d 3d86 81bc b4c6 da3c
00000160: b578 69bc 779f d0bb 441e a9bc c6c8 36bd
00000170: 26c4 69bd e4fc 283d eb7f cc3c 3fd4 d3bc
00000180: 3ac6 353d 132f 7cbc c6d9 8e3d 8deb 9dbd
00000190: a487 09bd a314 8cbc d07d 963c c85b 133d
000001a0: 1f37 98bd a36d d3bb a8c7 79bd 2837 7cbd
000001b0: 75a3 9ebc 4f02 243b 66ee 6b3c 5faf f9bc
000001c0: 3ab2 2bbb 0f98 b0bd 930f 9ebd 9c66 aabd
000001d0: d729 93bd 240a 81bd bcc0 cebc 9b35 54bd
000001e0: 8277 2fbd 1229 e4bc 2478 f73b 994f 83bd
000001f0: 02f0 8b3d d343 a5bb 3054 0abd a11a b33d
00000200: e7bb 683d e432 123d d893 0cbd 9254 9e3d
00000210: e128 823d a70c a93d e10d 83bd bddf 883d
00000220: 5d5e 87bd d5fd abbd 34da 2d3d fecf 813d
00000230: 487e 8f3d 19a5 84bd 31ac 1cbc aa00 543d
00000240: 1f4b 11bd f6da 2abb ae3b 513d d261 0c3d
00000250: e8d0 f3bc 68e7 07bd a867 bcbd 0379 6dbd
00000260: cb71 453d 19a3 863d 3e46 1b3d cf5d 2e3d
00000270: 125b e13c 1ed0 843c 4422 cabb c129 a13d
00000280: 2a4c 943d 5b2d 25bb b05a 7cbc f5a6 203d
00000290: 9242 21bd c887 abbd 491a b8bc 52b6 f3bb
000002a0: 0a25 94bd 27cb 8f3c 4ddc 75bd 37c3 b63d
000002b0: cd71 a3bd 6444 33bd b031 9e3d 8e8e e73c
000002c0: 9a73 673c 5e82 803c 4479 863d f04d a2bd
000002d0: 9e98 7e3d 6467 d43c b552 ffbc ec49 683d
000002e0: 2767 4dbd 48ec 263d 2704 393d a9c1 12bd
000002f0: 1162 54bc 3e1f 9e3d a528 693d 52f1 c8bc
00000300: b3ac 33bd bccc 043c 4685 a13d cfe6 ecbb
00000310: 9237 86bc cd11 623d 9a75 f23c 0b2a 503d
00000320: 5541 88bd cc6c d7bb ec69 82bd 469c 38bd
00000330: 53db a53d 137a 153c 40e2 603d 4c56 89bd
00000340: c5c5 863d 5908 8bbd d27a 4c3b da6e 6e3d
00000350: f621 c5bc 0413 83bd d958 29bd 995e bbbc
00000360: 9f55 073d d98e 4ebd e1b0 253d 0a29 a63d
00000370: 6473 1b3d fbf5 283d 8f0a fc3c 0a7d 1e3d
00000380: 29d9 243d d851 3dbc 6eeb 563d 9cd5 913d
00000390: 19f4 a0bd 3318 013b 67cf 23bc cd40 aa3d
000003a0: 5358 673d e050 25bd 436b 08bd f55f 3abd
000003b0: f61f a83d dd71 4dbd 8056 b53d f8d5 923c
000003c0: a120 fbbc 9e8f 7a3d 7d7b 663c 2e6f 4a3d
000003d0: 4424 6a3d 6567 833d d599 12bd ba7e 873a
000003e0: dfb0 a73d ef9e b0bd c236 78bd d02b 0dbd
000003f0: ddbf 983d 12d9 c63b 2465 e8bc abae 34bd
0.02899262 0.086034864 0.007010101 0.055417515 -0.053230174 -0.033325676 0.004936457 -0.07847639
-0.049916986 -0.06803229 0.06961198 0.042713266 0.077714056 -0.080012806 0.039338402 0.024494039
0.047304932 -0.025203686 0.06472086 0.013668676 0.08366374 -0.025695508 -0.0104308 0.09109384
0.021361107 -0.036280055 -0.058257252 0.07716873 -0.008429562 -0.041510385 0.03390143 0.06326136
-0.057397276 -0.07582094 0.07004517 0.056356072 0.008920241 0.020068469 0.037621573 -0.04835442
-0.018097498 0.0903636 0.083078735 -0.07060088 0.0187451 -0.042783257 -0.026147163 -0.08323801
-0.038215555 -0.010054437 -0.06981103 0.08374597 -0.06687314 -0.06886623 -0.009800267 -0.0062566483
-0.059921008 0.024246966 -0.008560331 -0.04424911 0.010338474 -0.043615136 -0.0010623202 0.0826302
-0.026665872 -0.048454333 -0.050777167 0.04675866 0.08142636 0.05570877 0.07825057 0.066210344
-0.04257209 0.062524386 0.076227754 -0.022458442 -0.044874854 0.057739764 0.02990108 0.07233858
0.051109258 0.05372775 0.0034467764 0.02820994 -0.01947193 0.08074167 -0.01581108 0.026706077
-0.01424997 -0.006366666 -0.020644315 -0.044625066 -0.057071827 0.0412568 0.02496334 -0.025858043
0.044378497 -0.015392083 0.06975131 -0.07710943 -0.033576623 -0.017099684 0.018370539 0.0359762
-0.074323885 -0.0064522787 -0.060981423 -0.06157604 -0.019365052 0.002502579 0.0144001 -0.030479131
-0.002619876 -0.08622753 -0.07717814 -0.083203524 -0.07185715 -0.06300762 -0.025238387 -0.051808935
-0.04283858 -0.027851615 0.0075521637 -0.064116664 0.06832887 -0.0050434857 -0.033771694 0.087453134
0.056819823 0.035693064 -0.034320682 0.07730974 0.06355453 0.08254366 -0.063991316 0.066833
-0.06609795 -0.08398024 0.042444423 0.063384995 0.07006508 -0.064768024 -0.009562538 0.051758446
-0.03547203 -0.0026070452 0.051082306 0.034272976 -0.0297627 -0.03317967 -0.09199458 -0.057976734
0.048204225 0.06574077 0.037908785 0.04256993 0.027509246 0.01621252 -0.0061686356 0.07869292
0.0724109 -0.0025204036 -0.015402481 0.039221723 -0.039370127 -0.083755076 -0.022473471 -0.0074375058
-0.07233627 0.017552925 -0.06002455 0.08923953 -0.0798069 -0.043766394 0.07724321 0.028266218
0.014126683 0.015687164 0.06566098 -0.07925022 0.062157266 0.025928207 -0.031167367 0.056711122
-0.050147202 0.04075268 0.045169976 -0.03582922 -0.012962834 0.07720803 0.056923527 -0.024529133
-0.04386587 0.008105453 0.07886748 -0.007229663 -0.01638392 0.055192757 0.029597092 0.050821345
-0.06653086 -0.006574249 -0.06367859 -0.04507091 0.080984734 0.009123343 0.05490327 -0.06705913
0.0658069 -0.067887016 0.0031201136 0.058211185 -0.024064045 -0.06400111 -0.041344497 -0.022872256
0.03304064 -0.0504292 0.040451888 0.08113296 0.037951842 0.04125021 0.030766753 0.038693465
0.040246163 -0.011555158 0.052470617 0.07120821 -0.07859058 0.0019698262 -0.009998179 0.08313141
0.056480717 -0.04036033 -0.033305418 -0.045501668 0.08209221 -0.050157417 0.08854389 0.017924294
-0.030655207 0.06117212 0.014067528 0.049422435 0.05716349 0.06416205 -0.035791237 0.001033745
0.08188032 -0.08624064 -0.060599096 -0.03446561 0.0745847 0.0060683573 -0.02836854 -0.04411189

lstm.bias_ih_l0 f4 [512]
00000000: 3e64 a63d 6c84 273d 3ece 59bd 16ea 573d
00000010: 1f0c 543d eb5b 93bd ab8f 90bc 53b3 8bbd
00000020: c12a 093d bbd2 d1bc a601 24bd 3861 1abd
00000030: eeec 9f3d ad5b 8ebd f385 6dbd 60e9 52bd
00000040: 86f5 89bd d979 433c 8f24 533c 096e ee3c
00000050: 96eb 82bd b1aa 8fbb 2dcb 163d 6300 e0bb
00000060: f401 913c 1e06 4cbb 2eeb 4abc 3367 96bd
00000070: c48c 81bc fc57 2b3c 2829 dabc ec08 863d
00000080: 259f 973c c873 933d 0384 8ebd b71e a7bc
00000090: 3d6e 803d 39d0 87bd 58fb 703d 106e 80bd
000000a0: ee8f 273c 7a27 51bd 8169 d73c edea 95bd
000000b0: f861 94bd 92b1 2a3c 29be a0bd 9645 033c
000000c0: 02eb 243c b89d 99bd ded5 143c 4b53 adbd
000000d0: e2ad abbd b1fa 80bd 2456 693d 4897 4dbd
000000e0: 505c a3bd 90b1 3d3d 36a7 5abd 1e8d 76bd
000000f0: 0e7d 9e3d 7dde b7bd d961 30bd d2c6 ebbc
00000100: a3e3 3a3d 2388 67bd 7a6d a7bd b895 adbb
00000110: b4f6 e23c c0d7 06bd 6248 0cbd 24e0 b03b
00000120: cfa9 91bd 1e93 87bc e4a8 863d 14f9 96bd
00000130: 0a91 643d e814 383d a62e ec3c d880 ea3c
00000140: 1fb0 233b b4c1 6abb 3d7e 24bd 366a 833d
00000150: 4357 cfbc 536d 0fbb 9157 10bd 939a 1fbd
00000160: 539d 323d 42f8 92bc d240 623b b460 f73b
00000170: 4a88 9c3d c556 d93b a249 babd e35a a7bd
00000180: 0585 153c d33d 653d 8f03 54bd a91d abbd
00000190: 257b acbd 3b3f d83c 2232 ac3d 7291 4d3c
000001a0: 7470 7ebd 72db 70bb 2c13 abbd 7e62 0ebd
000001b0: 1442 a83c 0824 85bc d38f 6fbb 63bb 66bd
000001c0: 406e 79bd 8df9 2ebd 1b89 babc 7352 a43d
000001d0: aa94 2cbc ca7d 0bbd 6d10 14bc 2284 a83d
000001e0: c740 a83c 064d 13bd eb8d 9dbd 1241 6d3d
000001f0: 509a e6bc f74a 913d 1e23 543b 5f80 c1bd
00000200: ca34 b0bd 30cb 893d 0704 253d cbdd 76bd
00000210: 9477 4a3d 9460 5e3d 2851 9a3d 7603 2bbd
00000220: 68fd 233b f0f5 aebc cb62 2e3c d6a7 1a3d
00000230: 6c23 6bbd 871f a73c ed92 b5bd a626 a0bb
00000240: 3bcb 873b 5827 70bd ff66 83bd 10af 96bd
00000250: fdd0 c93b 356f 973c ff69 873c c397 133d
00000260: 537b 6d3d e130 863d 8e26 2bbd e162 393d
00000270: 6ccc 9cbd 9507 a2bd 80f4 7c3d 1a0f abbd
00000280: 9976 303d 1eeb 653d 5e80 14bd 1e54 80bd
00000290: 6d1d 7d3c 7aeb 63ba 9e59 5abb 2969 aa3c
000002a0: 0c02 c33b 3909 8cbb 7eea d93c e2d1 563c
000002b0: 2b68 78bd 3ada 65bd 4d57 6f3d f8d0 c1bc
000002c0: df7d 60bd 06cb a3bd c50a 673d 57d5 4fbb
000002d0: f021 6dbd d255 33bc 9e94 a3bd 62d7 a4bd
000002e0: 4aff 38bd 65e6 aebd 4ecc 753d 33af 183d
000002f0: 8167 4ebd b9e0 953c 7dfe 14bd 9d1d 563c
00000300: 0c9c cdbc 71f1 973b cd46 9bbd 89b0 7b3d
00000310: d13b 7d3d 71c7 4c3d d19c 19bc d26b 03bd
00000320: c42e ee3c 3e76 da3c aa91 51bd 8663 783d
00000330: c33c 063d bce8 603d a68f 7b3d f535 acbc
00000340: 8658 a73d a5d6 883d 98e4 abbc e41d f3bc
00000350: 7b64 a8bb a1ca 333d 1781 d13c 65a0 8dbd
00000360: 30ff 8bbc 9f91 83bd a2ab 9cbd 5296 63bd
00000370: 5ac1 4a3d 29c4 eb3b 4cbb 7d3d 41b5 ecbc
00000380: 6aae 383d 47ca d23c 4649 efbc 858f eabc
00000390: 44da 953d 1aca 12bb eb86 a7bd dabe 89bc
000003a0: 32d9 113d 8d18 7b3d d3ad 5a3c dc83 ad3d
000003b0: 302b a83d b30c 953b 447b 79bc 2e65 97bc
000003c0: e47f 18bd f254 56bd 0d82 90bd 4713 17bd
000003d0: 8847 7bbc 22ec 7dbd 0252 5ebd 6c32 b6bc
000003e0: 291e 86bd c06a 483d 6ce1 b8bd 2f25 7d3d
000003f0: 75ef 9bbb cfcb 8a3d 1fca 963d ab40 2c3b
0.081245884 0.04089777 -0.053175204 0.052713476 0.051769372 -0.07195266 -0.017646631 -0.06821313
0.03348804 -0.02561318 -0.040040635 -0.03769037 0.078088626 -0.069510795 -0.057989072 -0.051492095
-0.06736283 0.011930906 0.012887134 0.029105203 -0.06392591 -0.0043843617 0.036814857 -0.0068359836
0.017701127 -0.0031131576 -0.012385173 -0.073439024 -0.015814193 0.010457989 -0.026630953 0.065446705
0.018508503 0.07199818 -0.06958773 -0.020400388 0.06271026 -0.06631512 0.05883345 -0.06270993
0.010227187 -0.05106304 0.026295425 -0.07320199 -0.072452486 0.010418313 -0.0784877 0.008012196
0.010065796 -0.075007856 0.009084193 -0.084631525 -0.08382775 -0.062978156 0.056966916 -0.0501931
-0.079765916 0.046311915 -0.05338212 -0.060193174 0.07738696 -0.08977983 -0.043062065 -0.028781328
0.045627248 -0.056526314 -0.08175178 -0.005297389 0.027705528 -0.0329206 -0.034248717 0.0053978134
-0.071124665 -0.016549643 0.06575182 -0.07371727 0.055802383 0.044941813 0.028830837 0.02862589
0.0024976803 -0.0035821022 -0.040159453 0.064167425 -0.025310164 -0.002188523 -0.03523976 -0.038965773
0.043607067 -0.017940644 0.00345235 0.0075493697 0.076431826 0.006632658 -0.090960756 -0.08171632
0.009125953 0.055967163 -0.051761206 -0.083552666 -0.084219255 0.026397338 0.084079996 0.012546884
-0.062118962 -0.0036751893 -0.08353266 -0.0347619 0.020539321 -0.016252533 -0.0036554232 -0.05633105
-0.06089616 -0.04271846 -0.022770455 0.080235384 -0.010533491 -0.03405551 -0.009037119 0.08228327
0.0205387 -0.035962127 -0.07693084 0.057923384 -0.028149754 0.070943765 0.0032369564 -0.09448313
-0.08603819 0.06728208 0.040287044 -0.060270112 0.049430445 0.054291323 0.075350106 -0.041751347
0.0025022868 -0.021357507 0.010643671 0.037757717 -0.057406828 0.020400776 -0.088659145 -0.0048874198
0.0041441 -0.05863127 -0.06416129 -0.07357609 0.0061589465 0.018485645 0.016530035 0.036033403
0.05797894 0.06552292 -0.041784815 0.045260314 -0.07656178 -0.079116024 0.06175661 -0.0835249
0.043081854 0.05613243 -0.036255233 -0.06266044 0.01544891 -0.00086944515 -0.0033317576 0.020802097
0.0059511717 -0.0042735604 0.026601072 0.013111563 -0.060646217 -0.05611632 0.058432866 -0.023659214
-0.05480754 -0.07997708 0.056406755 -0.0031712854 -0.057893693 -0.010945754 -0.07987331 -0.080488935
-0.045165338 -0.08540038 0.060009293 0.037276458 -0.050391678 0.018295633 -0.03637551 0.013068584
-0.025098823 0.0046369364 -0.075818636 0.061447654 0.061824623 0.04999489 -0.009375767 -0.032085247
0.029075034 0.02666771 -0.051164307 0.060641788 0.03277279 0.054909453 0.06141629 -0.021021822
0.081711814 0.06681565 -0.020983025 -0.029677339 -0.0051389313 0.043894414 0.02557425 -0.069153585
-0.017089456 -0.064242594 -0.07649924 -0.05556328 0.0495008 0.007195015 0.0619462 -0.028895022
0.04508821 0.025731219 -0.029209744 -0.028632889 0.073170215 -0.0022398294 -0.081800304 -0.016814638
0.035607524 0.06130271 0.013347107 0.08472416 0.08211362 0.004548633 -0.015227143 -0.018480863
-0.03723134 -0.052327104 -0.07056055 -0.03688362 -0.015336879 -0.061992772 -0.054277427 -0.02224084
-0.06548721 0.04892993 -0.09027371 0.06180304 -0.00475877 0.06777155 0.0736277 0.0026283662

lstm.bias_hh_l0 f4 [512]
00000000: e4e7 8d3d 74c4 463c 3a48 a13c eb34 bc3c
00000010: cd29 a73c 1806 2cbd 2a22 92bd 6d75 92bd
00000020: 5878 99bd 7e14 123d 6db7 fcbb 5b0a 9dbd
00000030: 3eb8 ffbc 9f15 87bb f755 9cbd cf3b 8cbd
00000040: 5475 b13d ea45 923d 0b38 4abc ae99 77bd
00000050: 25fa 22bd b519 b2bc 0c6e 22ba 885d 45bc
00000060: 0c57 67bc 044d 223b a705 58bd 8bbb fabc
00000070: 42d5 cfbc b632 96bd 8f03 833d b024 2f3d
00000080: d6bd 483d 76a4 36bd 16c2 47bd 4f30 8abc
00000090: e98d 1ebd e31c 033d c2b7 6bbc 79e4 0bbd
000000a0: ade3 b4bd 6500 3b3d d635 58bd daec e83c
000000b0: e626 423d 7b01 803d 99f3 623d 3bf1 47bd
000000c0: 4eca 9a39 220d 99ba 5cff 4dbd f36a 00bc
000000d0: 819f cebc ef86 9dbc b9ae c53c 94c4 ae3b
000000e0: 3857 063d c270 9d3d c73a 643d 78b2 74bd
000000f0: 595f 603d 347b 42bb 7dc5 f93c ac85 9f3b
00000100: 5c19 4ebd 0ec8 d53c fa40 653d fa46 11bd
00000110: 1276 9bbd 315e 453c f405 af3d aa8a 7c3c
00000120: 2317 943d 15f9 df3c 9020 063d 9b08 ad3d
00000130: 9bcb 43bd 6e2b a33d 4b0e 48bd 2b0c ab3d
00000140: eb3d 683d 668f 57bd 6a54 af3d 9cb7 8abd
00000150: eb68 a63d 898c 05bd c107 2dbd d86a c0bc
00000160: a9b8 cc3b aae5 a73c 6c41 0e3c 51ec 583d
00000170: 355e 5dbd 8fd3 68bd 5e6f bb3c 4297 8f3c
00000180: 5440 24bd b6bd c8bc 066f 51bd 0659 8ebb
00000190: d080 993d b19e 8fbb e1f5 b1bc 97dc 513d
000001a0: 2576 57bc 15b8 04bb c77a 4ebd d293 ecbc
000001b0: 8d31 473d f977 6cbd f356 3f3d 1372 63bd
000001c0: 79a2 6cbd 65bb a6bd e467 8ebd 5c18 f1bb
000001d0: feff fb3c 21f8 1ebd e62c 49bc ef6d 86bd
000001e0: ee1d 423c 6d26 833c 3812 97bd 608b 943d
000001f0: c17e 16bb 6b06 a8bc 7291 75bd de58 013d
00000200: 802c 813d 5561 ff3b 2c86 b6bd 82e5 b9bc
00000210: a81b 083d 84b0 d0bc 1c4b d23c 6292 27bd
00000220: 549b b43a 3e2d 933d 09e2 993b 2c85 5ebc
00000230: fdba 4bbd 511e 4fbd 8a66 babd 8e89 6a3c
00000240: e0ef 383d 07e2 123d 8f64 9b3d d7b3 09bc
00000250: df2c 293d 45ae 12bd bf63 853d 9f7d aabd
00000260: f82c 33bb f548 fcbc 20b1 66bd 2df6 a7bd
00000270: d896 8ebd 3d6a 7b3d ad3c 4dbc 726f 863d
00000280: 6024 2d3c 0d3c 813d ecd3 37bc ba5f 1f3d
00000290: c6d4 963d be6b 59bd 88be 91bd f116 fbbc
000002a0: a6c5 a6bd 544f 843d 193a 12bd f682 c03c
000002b0: b6ff 30bc 8a46 b1bc f73b 9c3d ebbb f239
000002c0: 9a2d 04bd a7ed 183d a4d9 6d3d 1073 6a3d
000002d0: 27b4 e8bc 9324 8f3c a550 24bd 4989 86ba
000002e0: d711 3e3c 5e69 9abc ee5b 163d 737c 83bc
000002f0: 7ba1 1a3d c3e3 9f3d acd9 be3c 796d bd3c
00000300: 6cd0 053d ccd5 9ebd 0c78 aa3d efc5 89bd
00000310: 3a08 aabc c06d 57bc 6190 6d3c 93a7 d63c
00000320: dea2 0dbd 30f6 f9bc 5fd8 c6ba 6e88 8bbc
00000330: 07a3 3d3d f430 bc3c 8f9d 3b3d a0b0 49bd
00000340: ec4d 5c3d c445 98bd 5412 babc a4c2 2ebd
00000350: a2a3 9cbd a8f4 9e3d 9db9 b9bd 5107 74bd
00000360: 2591 24bd e72e 203d 0a0c 2bbd f1e9 a33d
00000370: c62e 94bd 9c90 9c3d 9159 bcbc 39f0 ccbc
00000380: a653 0a3d 69af 13bd ea95 8cbb 1823 b6ba
00000390: 5420 8d3d f332 a13d 3466 c5ba 10ab 873c
000003a0: 8189 8c3d 02b5 11bd 76d5 7cbb 5385 3ebd
000003b0: 4f7e 64bd 0ada 093d 1b58 2bbd d02f 01bb
000003c0: f3b5 bb3a 3901 553d 6b2d 50bd 9cc5 573d
000003d0: 40ca 7fbc cadc 1fbd 1023 6bbd 7de3 05bd
000003e0: 8952 85bb 5dc6 b3bd e247 5fbd b3c4 403d
000003f0: ee76 383d 0296 153d 5b9f fb3c abd1 9ebc
0.06928995 0.012131799 0.01968776 0.022974452 0.020405674 -0.041998 -0.071354225 -0.071513034
-0.07493657 0.035664074 -0.0077122957 -0.07667991 -0.031215783 -0.0041224505 -0.07633584 -0.06847345
0.08664957 0.07142241 -0.012342463 -0.060449295 -0.039789338 -0.021740774 -0.0006196208 -0.012046225
-0.014119875 0.0024765143 -0.052739765 -0.030607006 -0.025370244 -0.07333891 0.06397163 0.042759597
0.049009167 -0.044590436 -0.04876908 -0.016868738 -0.038709555 0.03200997 -0.014387073 -0.034153435
-0.08832488 0.045654673 -0.052785717 0.028433252 0.047400378 0.062502824 0.055408094 -0.04881404
0.00029523898 -0.0011676888 -0.050292358 -0.007837999 -0.025222542 -0.01922938 0.024131166 0.0053334925
0.032798022 0.076875225 0.055720117 -0.059740514 0.05477843 -0.0029675486 0.030489678 0.00486823
-0.050317153 0.02609637 0.05597017 -0.03546808 -0.075908795 0.012046383 0.08546057 0.015413919
0.072309755 0.027340451 0.032745898 0.08448907 -0.047801595 0.07967268 -0.048841756 0.0835193
0.056699675 -0.05262699 0.085610226 -0.06773302 0.0812548 -0.032604728 -0.042243723 -0.023488447
0.006247599 0.020495255 0.00868259 0.052959744 -0.05404492 -0.056842383 0.022880252 0.01752818
-0.04010041 -0.024504524 -0.05113127 -0.0043441085 0.07495272 -0.004382931 -0.02172369 0.05123576
-0.013150726 -0.0020251323 -0.05041006 -0.02887908 0.04863124 -0.057731602 0.04671378 -0.05552871
-0.057772133 -0.081412114 -0.06953409 -0.00735764 0.030761715 -0.038810853 -0.012278771 -0.06563937
0.011847956 0.016009534 -0.07376522 0.07253146 -0.0022963735 -0.020510873 -0.05995316 0.03157889
0.06307316 0.0077935853 -0.0891231 -0.022692446 0.0332295 -0.025474794 0.02567058 -0.040911086
0.0013779202 0.07186364 0.004696135 -0.013581555 -0.049738873 -0.05056602 -0.09101589 0.014315022
0.045150638 0.035860088 0.075875394 -0.008404694 0.041302558 -0.035810728 0.06513166 -0.083247416
-0.0027340036 -0.030796507 -0.056321263 -0.08201251 -0.06962365 0.061380614 -0.012526673 0.06564225
0.0105677545 0.06310282 -0.01121996 0.03890965 0.07364802 -0.053081267 -0.07116419 -0.030650588
-0.08143167 0.06460443 -0.035699937 0.023499947 -0.010803154 -0.021640081 0.07628625 0.00046297847
-0.03227005 0.037336018 0.058068886 0.05723864 -0.028406216 0.017473495 -0.04011597 -0.0010264303
0.011600933 -0.018849071 0.036708765 -0.016050553 0.037751656 0.07807114 0.023297153 0.02312349
0.03266947 -0.07755622 0.083236784 -0.06727206 -0.020755876 -0.013148725 0.014499755 0.026202952
-0.03457915 -0.0305129 -0.0015170685 -0.017032828 0.046298053 0.022972561 0.045804556 -0.04924071
0.05378525 -0.07435182 -0.022713818 -0.042666093 -0.07648398 0.07761508 -0.09068606 -0.05957729
-0.040177483 0.03910723 -0.04175953 0.08003605 -0.07235484 0.076447695 -0.022991927 -0.02501689
0.03377118 -0.036055956 -0.004290332 -0.0013895957 0.06890932 0.07871046 -0.0015060366 0.016561061
0.06862164 -0.035573013 -0.003857938 -0.046513867 -0.05578452 0.033655204 -0.04183207 -0.0019712336
0.0014321193 0.05200312 -0.050824564 0.05267869 -0.015612185 -0.03902892 -0.057406485 -0.032687653
-0.004068677 -0.08778069 -0.054511912 0.047062587 0.045035295 0.03652001 0.030715635 -0.019387087

lstm.weight_ih_l0_reverse f4 [512, 64]
00000000: 8420 c83c 8b7d 25bd bd0f 41bd 3d86 8c3d
00000010: 7bbf 84bc 26a6 703d 5bdc 2b3d 8d6e 36bd
00000020: 4d40 d73d 252f 883d ab44 13bb cd6d 89bc
00000030: a427 9b3b 2c5c 97bd d7a5 d93c c5c6 9abd
00000040: 0745 2d3c a6ef 4b3d 60d1 95bc e420 883d
00000050: 40e9 ffbc a846 78bd eab1 9dbc 8629 60bd
00000060: 1fee 5e3d 5a37 03bc 19e6 a73c 0564 733d
00000070: 0dd8 ab3d 3689 adbd 7ed1 b1bd 7038 6f3d
00000080: 521b 423d d73f 2abd 57fd 4fbc 7dda cbbd
00000090: 35dd cfbc c786 5bbd 8c15 75bd 9c6f 64bd
000000a0: 0b7e 433d 8ecf 44bd fedc 3d3d cc77 663c
000000b0: 8d7d 98bd 796d 393c 2486 e33b 7d20 1b3d
000000c0: 63e2 9d3d d1e5 4c3d f27f 833d 6b16 82bd
000000d0: 9883 bcbb 28e3 82bd 7641 983d 19f7 803c
000000e0: b6de d7ba 2341 5dbc 24b5 c4bd 05e7 d6bc
000000f0: 0be3 b3bd 86da f6bc e850 38bc 7f03 e73c
00000100: 16f9 ddbd 56fe 593d bed5 613d e2a7 a3bd
00000110: cbd1 26bd 10c8 56bd 30bd 9d3d e1c9 573d
00000120: 2f67 8f3d ea75 573d b575 53bd 1e25 4cbd
00000130: f033 99bd 70ca 70bc 6eec 873d 765a b3bb
00000140: dea2 82bd 6a80 b53c 2cf9 153c 34c5 063c
00000150: 7a84 a5bd 62a7 28bd 11c8 54bd 7975 2ebd
00000160: 1734 99bd 126e 5b3d a65d b8bc 2ac4 63bc
00000170: d406 493d a61c 803d d62e 5a3d c1bf ccbd
00000180: 50dd bf3d 2434 6bbd b2c8 893c 57da 363c
00000190: 185e 18bb 5ac0 8b3d 28b9 b9bc 0c4b a7bd
000001a0: e42b 803d 9371 20bd e375 8dbd 0765 a83d
000001b0: ceac 9c3d 1000 953d 0a7c e63c 698f 8dbd
000001c0: d499 023d 77e0 963d b2ca babc 21bf 1e3d
000001d0: ab07 94bd 6a7f 6d3d 1927 a2bb c8f9 f73c
000001e0: 5b6e 0a3d fbeb 9e3d dfac 57bd 0121 67bd
000001f0: 5cc4 d6bc d44d 9abd 25c2 8ebd c835 26bc
00000200: d7dd c5bd 686e cabd f5a5 3d3d 9a52 48bc
00000210: 04d1 9a3d ac89 11bb f6ec 403b 420e 0cbd
00000220: 17cf b73c b2b3 83bd c639 3a3d c84c 8a3d
00000230: 21ec b73d 673d 643d a92e 0a3d 785f 96ba
00000240: 0571 0dbd 5f8c 2bbc 80fe 5bbc aa36 943c
00000250: 65bf bf3c a347 35bd 971e 973d aae2 003d
00000260: a7e9 983c 72a8 9e3c 0f95 2b3d 84b5 8aba
00000270: b3f5 853d 14f3 543b d4e5 b1bd 29d1 313d
00000280: 003b 053d b24e 4c3d c20f fcbc 46c9 c03d
00000290: dd86 973d 999b 4dbd 4819 14bd d050 513c
000002a0: 73eb 78bd dca3 cebd 6ec4 67bb 3e2a 4dbb
000002b0: 8996 8bbd 45f8 2dbd ac4b 133d 505b 113c
000002c0: 8ff5 9d3d 53dc 8b3d 4687 5c3d a24d 16ba
000002d0: 2e4b 7e3d 145c 8b3c e4e0 3c3c 39ae bf3d
000002e0: 37aa cabc e9aa 8ebd e73b 2d3d 0b9e afbd
000002f0: 45c6 363d 98a3 b03d 8386 8b3d b50d acbc
00000300: f398 d0bd f046 693c 5be1 1e3d affe d3bb
00000310: dad8 ee3c 1391 40bc 22d7 77bb d9b3 9cbd
00000320: 0e44 413d bfe0 013d f25f 4e3d 64bc 80bd
00000330: 066a 163d 1b68 d43b 8747 21bd b37c 48bc
00000340: 5cab 4bbc 892f 1abd bc31 a93b 139b f0bc
00000350: 8235 5fbd 7428 893d a8b3 93bd 80f6 543a
00000360: 4a36 123b 0074 5235 a96c 393d 9920 a4bd
00000370: e549 d33c 0fe1 223d 51cb 223d 4075 07bd
00000380: dd35 adbb 6309 fbbc fb8b 713c 16dc 63bd
00000390: 71f8 02ba 7464 063d b0d8 5cbd 931b 813d
000003a0: 7ed5 cabd 367b 1dbd fba6 dfbc 041a 9d3c
000003b0: ca34 9bbd 125d c23c f2ec 96bc 285c ab3d
000003c0: 4dcb dfbc 2bc7 19bd 8a49 a3bb a932 19bd
000003d0: 7b32 7ebd d203 4d3d 47e7 92bd 21e3 e5bc
000003e0: 207b 45bd 1c99 6cbd c2f8 2d3d 02f3 2bbc
000003f0: 79b8 2fbb 4f10 783b 4a3b 853c 9100 953d
0.024429567 -0.04040293 -0.04713415 0.068615414 -0.016204586 0.0587522 0.041958194 -0.044539023
0.10510311 0.06649617 -0.002247135 -0.01677599 0.00473495 -0.07390627 0.026568336 -0.075574435
0.010575539 0.049789093 -0.018288314 0.066468984 -0.031239152 -0.060614258 -0.019249875 -0.0547271
0.05442631 -0.008008802 0.020495461 0.059421558 0.08390818 -0.084734365 -0.086825356 0.058403432
0.047389336 -0.04156479 -0.012694678 -0.09953783 -0.025374034 -0.05359533 -0.059835 -0.0557705
0.047727626 -0.048049502 0.046353333 0.014066648 -0.07445822 0.011317604 0.006943481 0.03787278
0.077091955 0.050023858 0.06420888 -0.06351932 -0.005752992 -0.06390983 0.07434361 0.015742825
-0.0016469571 -0.013504299 -0.09604862 -0.026233206 -0.087835394 -0.030133497 -0.011249758 0.02819991
-0.10838525 0.05322107 0.05513548 -0.079910055 -0.040727418 -0.05243689 0.077021 0.05268276
0.070021026 0.052602686 -0.051625926 -0.049840085 -0.074806094 -0.014696702 0.06636892 -0.0054734303
-0.06378721 0.02215596 0.0091536455 0.008225728 -0.080819085 -0.041175254 -0.05194861 -0.0425925
-0.074806385 0.053571768 -0.022505593 -0.01390175 0.049078777 0.06255464 0.053267322 -0.09997512
0.09368384 -0.057422772 0.016819332 0.011160455 -0.0023249444 0.068237975 -0.022671297 -0.08168611
0.062583715 -0.039170813 -0.06907251 0.082223944 0.076501474 0.072754025 0.028135318 -0.06912119
0.031884983 0.07367032 -0.02280173 0.038756493 -0.07228025 0.05798284 -0.0049485085 0.030270472
0.03379665 0.077598535 -0.052655097 -0.05642796 -0.026216678 -0.07534376 -0.06970624 -0.010144658
-0.09661453 -0.098843396 0.046300847 -0.012226725 0.07559398 -0.0022207303 0.0029438115 -0.034193285
0.022437615 -0.064307585 0.045465253 0.06752926 0.08980585 0.05572262 0.033735905 -0.0011472544
-0.034531612 -0.010470479 -0.013427377 0.018092472 0.023406694 -0.04425777 0.073788814 0.031466164
0.018666102 0.01936743 0.0418902 -0.001058266 0.06541004 0.0032493519 -0.08686414 0.04341236
0.03252697 0.049879737 -0.030769233 0.0941339 0.0739877 -0.050197218 -0.036156923 0.012775615
-0.060771417 -0.100898474 -0.0035364884 -0.0031305696 -0.06815822 -0.042473096 0.03596084 0.008871868
0.07712852 0.06829133 0.053839944 -0.0005733614 0.062083416 0.01701168 0.0115282275 0.09359402
-0.024739368 -0.06966192 0.042293455 -0.08575066 0.04462268 0.08624953 0.068127654 -0.02100263
-0.10185423 0.014238104 0.038789134 -0.0064695696 0.029156137 -0.011753338 -0.0037817438 -0.07651491
0.047184043 0.031708475 0.05038447 -0.06285933 0.036722206 0.006482137 -0.039374854 -0.012236762
-0.012430992 -0.03764299 0.0051633995 -0.02937082 -0.05449439 0.06697169 -0.07212001 0.00081238896
0.002231019 7.83999e-07 0.045269642 -0.0801403 0.025792072 0.039765414 0.03974468 -0.033070803
-0.005285962 -0.030644124 0.014742847 -0.055629812 -0.0004996127 0.032810643 -0.053917587 0.063040875
-0.09904002 -0.03844758 -0.027301302 0.019177444 -0.07578428 0.02372602 -0.018423531 0.08367187
-0.027318621 -0.037543457 -0.004983132 -0.03740183 -0.06205986 0.05005247 -0.07173019 -0.028062405
-0.048213124 -0.057763204 0.042473562 -0.010494949 -0.0026812835 0.0037851518 0.016263623 0.07275499

lstm.weight_hh_l0_reverse f4 [512, 128]
00000000: 2df3 833d 8af5 9ebd cfdc 7ebd 120a 733d
00000010: 889b a5bd 7493 04bd cd52 853d 5528 703c
00000020: e817 9eba 55d0 d53d 582e 30bc c350 a2bd
00000030: 19bf 45bd 883d 8cbd d3d2 b03c 0c38 dabc
00000040: e01b 343d 88d9 06bb 0971 89bd 7d20 90bd
00000050: b2a9 68bd 58d4 a63d 52f7 1fbd de16 b23b
00000060: e2fb 3e3d a048 b23c 05b6 9ebd 4278 6abc
00000070: 4dce 57bd 7bb3 303b 486b 12bd eb0e ac3c
00000080: 74a1 bc3d ad44 a53c b1fc 933d 36df 6e3c
00000090: ccfd 9abc d1f3 ae3d 0bf5 c83c 5664 81bd
000000a0: cc30 2ebd dd20 773d b0af 4b3d 71cf 4b3d
000000b0: e265 023d 1020 973d 0542 263c 996c 98bd
000000c0: 0b48 4cbd 6de3 f6bc 6600 aa3d 1d74 7d3d
000000d0: 0d23 2c3d f6fe 833d f850 8938 6eef 833c
000000e0: 8119 523d 4b2f 293d 6bbe 4cbd 745d 413d
000000f0: fb56 663d 6063 1b3d 1ba8 b13d 3882 35bd
00000100: 9ea3 373d 86eb bcbc 48bf 203b f08b a33b
00000110: a521 1bbd 9479 84bd f2ed 893d 581e a23d
00000120: b963 5f3d 99c4 cfbb 8e13 6c3d 4109 773c
00000130: 1daf 32bd 668d 783d d4b5 84bd e4ec 4abb
00000140: 4fdd efbc 3a94 813d fcf0 d3bc 33c8 47bd
00000150: 54f1 133d 1713 603d 7efd 03bd f91f 99bd
00000160: 70dc b1bd 084b 723d 3dff 15bb ea36 80bd
00000170: 1cd6 5abd 7264 073c 50c0 053d c86a dd3c
00000180: f3ce aa3b 4981 ae3c 1461 dc3c 33b6 a83d
00000190: a90c 913c c9bf b1bd 24ea 403d a22d 383d
000001a0: 7ff3 ce3d 69f7 2c3d c118 ac3d 6ace 07bd
000001b0: 42b6 3abd b3b1 06bd 24ae 8abd 44aa 31bd
000001c0: 41e2 1c3d 1c1e a4bd 3bad d73b 8907 9e3c
000001d0: c0c4 193c 482b b5bd f21f ecbc 0b70 0d3d
000001e0: 4ebd 9dbd a144 9ebd 5058 53bd 4658 88bc
000001f0: 41ce 843d d203 8e3d 62ca de3c 236e 66bd
00000200: 015d 26bc 1288 d3bc d220 613c 1302 863d
00000210: 4f9f 183d 98dc 6a3d b53d 8f3b cd8b 153d
00000220: ffa6 733d 1aa0 b5bd b8e5 e03c 7797 0f3c
00000230: efb6 2bbd ee0d a9bd 7fbb 273d 159b 673d
00000240: 15fb 10bd ec10 473d b234 a6bd aace 0bbc
00000250: 137c 523d 02b2 c33d c2b5 2a3d 9017 88bd
00000260: b6f0 443c e43e 71bc 11d2 113c 4b21 353d
00000270: 2f06 4bbd c994 1abd 89ea 5cbd 6497 0dbd
00000280: f484 a7bc 6714 483d b527 693c e75f 45bd
00000290: 30de 5cbd 3856 9dbd 0c89 023d 391d f7bc
000002a0: 00c6 373d 6c0d e2bc d39a 8dbd 9208 313d
000002b0: 426a 20bd 02df b93c 7d98 7ebd 4b48 c23d
000002c0: cbd9 76bd 801b 32bd ae89 633c 3c60 42bd
000002d0: f567 52bd 00c7 9dbd d69d d33d 3629 243d
000002e0: 50e3 843d 1413 86bc 23d7 783d 1d5a 8a3b
000002f0: ed0a afbc babb 1ebd 4dca 4ebd d5e5 5b3c
00000300: 8cf6 abbb dc5f fc3c 3afc 443d 9687 e93c
00000310: 8c55 2b3c 5acf 06bc 0d4b a6bd 1934 c13c
00000320: a225 9dbd 5d40 e23c 9eed 263d 42c1 87bd
00000330: 5b99 a43d b70c 77bd ff27 883d 960b 9abd
00000340: 946e 96bd 630d dbbc d019 843d 0f5a 0f3d
00000350: 2d12 ad3b 96bf b9bc f78f 32bd ec69 393d
00000360: 90ce 543d bf11 3bbd 02d6 abbb 84b3 c6bb
00000370: 40bc c53c 3289 4e3c d832 dc3b 94de 923d
00000380: c9b8 ee3c af71 4f3d 9ce1 193d f856 0239
00000390: 3cb4 58bc d1db 843d b85f ad3d a648 15bc
000003a0: f093 9abd 0ea2 023c 6070 9e3c 2ca2 c9bd
000003b0: 3e82 dbbd feb5 cd3c 8262 533d 919e c6bc
000003c0: 7615 8a3d 0c9b 23bd 84d7 13bd 89fe febc
000003d0: a184 633d 3eff d43c e46f 72bd 64dc 0d3d
000003e0: 68b3 bbbc 2e2f af3d bca1 99bd 1f5a a3bd
000003f0: 6ef0 553d ea4c dabb 7869 aabd c1b2 60bd
0.064428665 -0.077616766 -0.0622223 0.059335776 -0.08086306 -0.032367185 0.065099336 0.014658053
-0.0012061568 0.10440127 -0.010753237 -0.0792556 -0.048277948 -0.06847674 0.021584904 -0.026638053
0.043971896 -0.0020576436 -0.06711013 -0.07037447 -0.05680246 0.0814597 -0.039054222 0.005434855
0.046626933 0.021763146 -0.07749561 -0.014310898 -0.052686978 0.0026962447 -0.035746843 0.021003207
0.09210482 0.020174349 0.072259314 0.014579585 -0.018919848 0.08542598 0.024530908 -0.06317966
-0.042527005 0.060334075 0.049728096 0.04975838 0.031835444 0.07379162 0.010147576 -0.07442588
-0.049873393 -0.030137742 0.08300857 0.061878312 0.042025615 0.06445114 6.547751e-05 0.01610538
0.051293854 0.041304868 -0.049986284 0.047208264 0.056235295 0.03793657 0.08674642 -0.04431364
0.044833772 -0.023061525 0.0024528075 0.004991047 -0.037873883 -0.06468502 0.067348376 0.07915944
0.054538462 -0.006340575 0.057635836 0.01507789 -0.043624032 0.060681723 -0.064799935 -0.0030963952
-0.029280333 0.063271 -0.025871746 -0.04877491 0.03611882 0.054705705 -0.03222417 -0.074768014
-0.08684623 0.059153587 -0.002288773 -0.06260474 -0.053426847 0.008263694 0.032654107 0.027028456
0.0052126586 0.021301882 0.02690176 0.08237877 0.017706232 -0.08679158 0.047098294 0.044965394
0.10105037 0.042228136 0.08403159 -0.033155836 -0.04558397 -0.03288431 -0.06771496 -0.04337527
0.03830171 -0.080135554 0.00658193 0.019290702 0.009385288 -0.08846146 -0.028823826 0.03453068
-0.07702123 -0.07727934 -0.051597893 -0.016643655 0.06484652 0.069343224 0.027196113 -0.05625738
-0.01015401 -0.02582172 0.013740735 0.065433644 0.037261304 0.05733928 0.0043713697 0.036510278
0.05948543 -0.088684276 0.027453288 0.008764139 -0.041922506 -0.0825461 0.040950295 0.056544382
-0.0353957 0.048600122 -0.081155196 -0.008533159 0.051387858 0.09555437 0.041677244 -0.06645119
0.012020281 -0.014724467 0.008900181 0.044221204 -0.049566444 -0.03773955 -0.053934608 -0.034568205
-0.02044914 0.048847582 0.014230658 -0.048187163 -0.053922832 -0.076824605 0.03186898 -0.030165302
0.044866562 -0.02759429 -0.06914296 0.043221064 -0.039163835 0.022689346 -0.062157143 0.09486445
-0.060266297 -0.043483257 0.013887806 -0.047455058 -0.051368672 -0.07703972 0.10332839 0.040078364
0.06488669 -0.016366519 0.060752045 0.004222168 -0.021367515 -0.03875325 -0.050485898 0.013421495
-0.0052478965 0.030807428 0.048092104 0.028507035 0.010457408 -0.008228147 -0.081197836 0.023584412
-0.076731935 0.027618581 0.040753953 -0.06628658 0.08037063 -0.06031486 0.06648254 -0.07521741
-0.0734531 -0.026739782 0.06450236 0.034997996 0.0052817077 -0.022674363 -0.043594327 0.04526703
0.051954806 -0.04567122 -0.0052440176 -0.0060638804 0.024137616 0.012605952 0.0067199282 0.0717136
0.029140847 0.050645526 0.037568673 0.00012430164 -0.013226565 0.06487239 0.084655225 -0.009111559
-0.07547748 0.007973207 0.019340694 -0.09845385 -0.10718201 0.025111195 0.051607616 -0.024245532
0.067423746 -0.039942786 -0.036094204 -0.031127231 0.055546407 0.026000615 -0.05918874 0.03463401
-0.022912696 0.08553921 -0.075015515 -0.079761736 0.052231245 -0.006662001 -0.08320898 -0.054857973

lstm.bias_ih_l0_reverse f4 [512]
00000000: c382 8a3d 92ea c4bc 8201 893d 30bf c33d
00000010: f136 53bd 2f28 24bd bb86 033d 6d87 1abc
00000020: 4b78 ca3d 1a19 b73c 4e67 513d 4869 3bbb
00000030: 7346 823d ecd3 ab3d b84b 60bd b981 ff3c
00000040: 5fe9 b53b 9e41 913d de44 80bd 1a57 80bd
00000050: 0022 6abd c0d9 a63d b09a 5e3d 3989 66bc
00000060: 71a5 6f3d 29d7 353d 5c9b 5cbd e6d7 b33d
00000070: 81ab d33d 7a87 76bd 8a70 733d 0c41 0f3c
00000080: 50f6 b93d 4580 983c 5586 41bd 40e0 fcbc
00000090: 71a8 ab3d ac45 2bbd f5ae 2c3d 77b1 f0bc
000000a0: ac99 5bbd 498a 5b3d b640 18bc ccf4 053d
000000b0: 79e0 70bd dfd8 7fbd 348d b23d b5f7 1abd
000000c0: bc0f 323d a9e4 1dbd 345b a73d e562 2cbd
000000d0: 891b 46bd 270d 8f3d 8fa5 b7bc ac08 993d
000000e0: 602a 193d 7a3a da3c c619 33bc ece1 9f3d
000000f0: 7a0a 97bc 5dd9 113d df55 9fbc 7b91 db3d
00000100: 0eac 1abd 1e53 883d 2459 623d 76ed 653d
00000110: 188d 193d 0a4d 2b3d 12c7 b83b fa9c 34bd
00000120: 2a3a c13d 0600 d03d 261e eebc ac1a 4fbd
00000130: 5f46 dfbc e859 8d3c 8ea2 413b eb69 223d
00000140: 073f 833d c2d4 af3d 1c53 61bd 7f51 9dbc
00000150: 61b3 2b3d 2681 b8bc 6cb8 d93c c071 19bd
00000160: 80c6 4b3d 01d4 b4bc 491c 5d3d 2155 57bb
00000170: 14bc 3ebd fd8b 45bd b537 273d 00ea 893d
00000180: cb1f 32bd cc57 fdbb 6dfc febb 096b f23c
00000190: 4d97 8bbd 2790 263d 344a 5bbd b71e aa3c
000001a0: b7f5 803d b7a8 9f3d 6ab6 78bd 7621 ce3c
000001b0: 8458 823d d902 b4bc 6174 e4bc 27e5 833d
000001c0: db8a c93b 4c5f bfb9 287e c93d 95d0 843d
000001d0: 167e 0cbd a8b9 693d 2eae 4cbd 7776 333c
000001e0: 4529 943d 3308 8fbd 3e0b eebc 2c9f d53c
000001f0: 6eac 3abd 486e e7bb 2eb8 803d 3f7e 15bd
00000200: e426 0c3d 9356 1ebd e645 15bc f9ab c5bc
00000210: d74f a03c f2bc 4a3c 763f 7abc 3b53 7b3d
00000220: 691b 09bc 6644 533d 4edd c93d 103b c93c
00000230: 983d 3c3d 508c 913d 1e72 9c3b b545 27bd
00000240: 5656 ebbc 8b4c 42bd 6c9c b33c 5fa3 b43d
00000250: 462d 9ebd 116f 903d 3d51 b5bd 582e c53d
00000260: 756d 4bbd c7a1 193a fdad 53bd db20 bd3c
00000270: ac2a 62bc 1c64 353d 6c9e 91bc ea27 b63c
00000280: 6b18 aa3d 31e4 8abc 773f a83d e4ad 1fbd
00000290: 953c 263d eed2 863d 4814 13bd e5f8 31bc
000002a0: 107a febb 7ad4 00bd 8081 babc 95fe 573d
000002b0: 06dc 81bd e37e 1abc b8b0 c13c 0575 87bd
000002c0: d811 61bd 5fe5 bd3d 9582 af3d 85c9 9c3c
000002d0: 6d0b 80bd d1c2 76bd c1ad 813d 83a2 bb3d
000002e0: 0dfd a1bc 44b2 3dbd f16e 5d3d 9f90 a93c
000002f0: cfc3 4f3d b806 0dbd 374b cf3d cec9 be3c
00000300: 2e25 f5bc 3af1 963c f91d c63c b740 093d
00000310: a6b1 86bd 0395 fe3c 9833 a0bd c296 053c
00000320: e82b babc 506c b33c 2ffd 8e3d 6c6d 8d3d
00000330: 95e2 9f3d 551d 34bd d645 62bb d234 1ebd
00000340: ef4c cdbc c425 9e3d d1bf d5bc 2642 f6bc
00000350: 3362 72bc 41b1 b0bc 50b6 8dbc cbc5 a63d
00000360: 1cf6 263d 1a56 853d 867f dfbc e7da 1e3d
00000370: 0230 58bb 0ae7 0dbd 7481 b43d 45ee 943d
00000380: c01c 2c3d 11e3 d33d bd9f 5c3d 0cda 32bd
00000390: b3cf cd3c f905 d23c b1af b83d 38de 973d
000003a0: 9b8d 8a3d a3bc 6bbd c3d5 4f3d 46e9 8a3d
000003b0: 275f 9f3d 426b 22bc 97e6 583d 4a2f 34bd
000003c0: ea25 7fbd a185 a33d ac65 453d b20f 8ebd
000003d0: 4e46 16bc 3e2e f73c bb8f 883d de9d 4bbd
000003e0: fe57 443c 7a6d 16bc 5fbd d23d 5469 f63b
000003f0: b014 7bbd 9519 c43a 43aa e83a b5c9 7e3d
0.06763222 -0.024037633 0.06689741 0.095579505 -0.051566068 -0.040077385 0.03211091 -0.009431702
0.09886225 0.022350837 0.05112391 -0.0028596688 0.06361093 0.0839003 -0.05475971 0.031189786
0.0055515016 0.070925936 -0.062631354 -0.06266613 -0.05716133 0.08147001 0.05434674 -0.014070802
0.058507387 0.044394646 -0.0538591 0.08781414 0.10335446 -0.060187794 0.059433497 0.008743536
0.090801835 0.018615851 -0.04724725 -0.03086865 0.08381737 -0.04181449 0.04215904 -0.029381497
-0.05361335 0.053598676 -0.009292772 0.03270416 -0.058807824 -0.062462684 0.087183386 -0.037833888
0.043472037 -0.038548145 0.081716925 -0.0420865 -0.048366103 0.069849305 -0.022417812 0.07472357
0.037393928 0.026639212 -0.010931438 0.07806763 -0.018437613 0.035607684 -0.019450126 0.107211076
-0.03776174 0.06656478 0.055260792 0.056134664 0.037488073 0.041821517 0.0056389654 -0.044095017
0.09434922 0.101562545 -0.02906711 -0.050562546 -0.027255235 0.017254785 0.0029546353 0.039651792
0.06408506 0.08585502 -0.0550109 -0.0192039 0.041919116 -0.02252252 0.026577197 -0.037461996
0.04974985 -0.022073748 0.053982053 -0.0032857137 -0.046566084 -0.048229206 0.04082461 0.06734085
-0.04348735 -0.0077314135 -0.0077815563 0.029592054 -0.06815968 0.04066482 -0.053537562 0.0207666
0.062968664 0.07795852 -0.06072084 0.02516244 0.06364539 -0.021974014 -0.027887525 0.06440192
0.006150586 -0.0003650136 0.098385155 0.06485096 -0.034299932 0.05706182 -0.0499708 0.010953537
0.07234434 -0.06983986 -0.029058095 0.026076876 -0.045574598 -0.007062707 0.062851295 -0.03649735
0.034216776 -0.038656782 -0.009110903 -0.024129855 0.01956932 0.01237415 -0.015273919 0.06135867
-0.0083683515 0.0515789 0.09856664 0.024564296 0.045957178 0.071068406 0.004774346 -0.040837962
-0.028727692 -0.04743628 0.021925174 0.08820223 -0.07723479 0.07052434 -0.088533856 0.0962798
-0.049664933 0.00058605935 -0.0516796 0.023086956 -0.013804119 0.044284925 -0.017775737 0.02223583
0.083054386 -0.016954513 0.0821523 -0.038984194 0.04058512 0.065832004 -0.035908014 -0.010862564
-0.007766016 -0.031452633 -0.022766829 0.052733023 -0.06340794 -0.009429666 0.023643836 -0.066141166
-0.054948658 0.09272265 0.085698284 0.01913906 -0.06252179 -0.060244385 0.06331969 0.09161856
-0.019773984 -0.046312585 0.05406088 0.020698844 0.050723847 -0.034430236 0.10121768 0.023289587
-0.029924955 0.018425573 0.024184214 0.033508983 -0.065768525 0.031076914 -0.07822341 0.008153619
-0.022726014 0.021902233 0.06981885 0.06905636 0.07806889 -0.043973286 -0.0034526489 -0.038624592
-0.025061099 0.07722047 -0.026092442 -0.030060839 -0.01479392 -0.021568896 -0.017298847 0.08143195
0.040762052 0.06510563 -0.027282488 0.03878298 -0.00329876 -0.034644164 0.08813754 0.07272009
0.042019606 0.10346044 0.053863276 -0.043664977 0.025123453 0.025637614 0.090178855 0.07415432
0.0676529 -0.057552945 0.05074097 0.067827746 0.07781821 -0.009913268 0.052954283 -0.04399041
-0.062292017 0.07984472 0.048192665 -0.069365874 -0.009172035 0.030173417 0.066680394 -0.0497111
0.01198387 -0.009181375 0.10290026 0.0075198803 -0.061299026 0.0014961237 0.0017750937 0.06220408
